
---- Results of 2019-10-24 01:04:39.315701 ----
Totat dataset : 80 items.
Length train set : 68.
Length test set : 12.
Epochs : 15.
Batch Size : 32.
Verbose : 2.
Loss : 208%.
Accuracy : 8%.
It takes : 0 minutes to train my model.
_________________________________________________________________
Layer (type)                 Output Shape              Param #   
=================================================================
conv2d_1 (Conv2D)            (None, 127, 127, 64)      320       
_________________________________________________________________
max_pooling2d_1 (MaxPooling2 (None, 63, 63, 64)        0         
_________________________________________________________________
conv2d_2 (Conv2D)            (None, 62, 62, 32)        8224      
_________________________________________________________________
max_pooling2d_2 (MaxPooling2 (None, 31, 31, 32)        0         
_________________________________________________________________
conv2d_3 (Conv2D)            (None, 30, 30, 16)        2064      
_________________________________________________________________
max_pooling2d_3 (MaxPooling2 (None, 15, 15, 16)        0         
_________________________________________________________________
conv2d_4 (Conv2D)            (None, 14, 14, 8)         520       
_________________________________________________________________
max_pooling2d_4 (MaxPooling2 (None, 7, 7, 8)           0         
_________________________________________________________________
flatten_1 (Flatten)          (None, 392)               0         
_________________________________________________________________
dense_1 (Dense)              (None, 8)                 3144      
=================================================================
Total params: 14,272
Trainable params: 14,272
Non-trainable params: 0
_________________________________________________________________
--------------------------------------------

---- Results of 2019-10-27 14:24:01.120546 ----
frequency of a song : 44100 Hz.
NFFT of a song : 5512.5.
overlap of a song : 126 .
Totat dataset : 80 items.
Length train set : 59.
Length test set : 21.
Epochs : 15.
Batch Size : 32.
Verbose : 2.
Loss : 1304%.
Accuracy : 19%.
It takes : 0 minutes to train my model.
_________________________________________________________________
Layer (type)                 Output Shape              Param #   
=================================================================
conv2d_1 (Conv2D)            (None, 105, 104, 64)      320       
_________________________________________________________________
max_pooling2d_1 (MaxPooling2 (None, 52, 52, 64)        0         
_________________________________________________________________
conv2d_2 (Conv2D)            (None, 51, 51, 32)        8224      
_________________________________________________________________
max_pooling2d_2 (MaxPooling2 (None, 25, 25, 32)        0         
_________________________________________________________________
conv2d_3 (Conv2D)            (None, 24, 24, 16)        2064      
_________________________________________________________________
max_pooling2d_3 (MaxPooling2 (None, 12, 12, 16)        0         
_________________________________________________________________
conv2d_4 (Conv2D)            (None, 11, 11, 8)         520       
_________________________________________________________________
max_pooling2d_4 (MaxPooling2 (None, 5, 5, 8)           0         
_________________________________________________________________
flatten_1 (Flatten)          (None, 200)               0         
_________________________________________________________________
dense_1 (Dense)              (None, 8)                 1608      
=================================================================
Total params: 12,736
Trainable params: 12,736
Non-trainable params: 0
_________________________________________________________________
------------------------------------------------------------------

---- Results of 2019-10-27 14:39:38.354973 ----
frequency of a song : 44100 Hz.
NFFT of a song : 5512.5.
overlap of a song : 126.
Activation function for the last dense layer : softmax .
Totat dataset : 400 items.
Length train set : 310.
Length test set : 90.
Epochs : 15.
Batch Size : 32.
Verbose : 2.
Loss : 1414%.
Accuracy : 12%.
It takes : 1 minutes to train my model.
_________________________________________________________________
Layer (type)                 Output Shape              Param #   
=================================================================
conv2d_1 (Conv2D)            (None, 105, 104, 64)      320       
_________________________________________________________________
max_pooling2d_1 (MaxPooling2 (None, 52, 52, 64)        0         
_________________________________________________________________
conv2d_2 (Conv2D)            (None, 51, 51, 32)        8224      
_________________________________________________________________
max_pooling2d_2 (MaxPooling2 (None, 25, 25, 32)        0         
_________________________________________________________________
conv2d_3 (Conv2D)            (None, 24, 24, 16)        2064      
_________________________________________________________________
max_pooling2d_3 (MaxPooling2 (None, 12, 12, 16)        0         
_________________________________________________________________
conv2d_4 (Conv2D)            (None, 11, 11, 8)         520       
_________________________________________________________________
max_pooling2d_4 (MaxPooling2 (None, 5, 5, 8)           0         
_________________________________________________________________
flatten_1 (Flatten)          (None, 200)               0         
_________________________________________________________________
dense_1 (Dense)              (None, 128)               25728     
_________________________________________________________________
dense_2 (Dense)              (None, 8)                 1032      
=================================================================
Total params: 37,888
Trainable params: 37,888
Non-trainable params: 0
_________________________________________________________________
------------------------------------------------------------------

---- Results of 2019-10-27 14:45:53.112590 ----
frequency of a song : 44100 Hz.
NFFT of a song : 5512.5.
overlap of a song : 126.
Activation function for the last dense layer : softmax .
Totat dataset : 400 items.
Length train set : 333.
Length test set : 67.
Epochs : 20.
Batch Size : 333.
Verbose : 1.
Loss : 215%.
Accuracy : 11%.
It takes : 3 minutes to train my model.
_________________________________________________________________
Layer (type)                 Output Shape              Param #   
=================================================================
conv2d_1 (Conv2D)            (None, 105, 104, 64)      320       
_________________________________________________________________
max_pooling2d_1 (MaxPooling2 (None, 52, 52, 64)        0         
_________________________________________________________________
conv2d_2 (Conv2D)            (None, 51, 51, 32)        8224      
_________________________________________________________________
max_pooling2d_2 (MaxPooling2 (None, 25, 25, 32)        0         
_________________________________________________________________
conv2d_3 (Conv2D)            (None, 24, 24, 16)        2064      
_________________________________________________________________
max_pooling2d_3 (MaxPooling2 (None, 12, 12, 16)        0         
_________________________________________________________________
conv2d_4 (Conv2D)            (None, 11, 11, 8)         520       
_________________________________________________________________
max_pooling2d_4 (MaxPooling2 (None, 5, 5, 8)           0         
_________________________________________________________________
flatten_1 (Flatten)          (None, 200)               0         
_________________________________________________________________
dense_1 (Dense)              (None, 128)               25728     
_________________________________________________________________
dense_2 (Dense)              (None, 64)                8256      
_________________________________________________________________
dense_3 (Dense)              (None, 8)                 520       
=================================================================
Total params: 45,632
Trainable params: 45,632
Non-trainable params: 0
_________________________________________________________________
------------------------------------------------------------------

---- Results of 2019-10-27 14:59:21.073892 ----
frequency of a song : 44100 Hz.
NFFT of a song : 5512.5.
overlap of a song : 126.
Optimizer of the model : rmsprop .
Loss function of the model : mean_squared_error .
Totat dataset : 400 items.
Length train set : 311.
Length test set : 89.
Epochs : 20.
Batch Size : 155.
Verbose : 2.
Loss : 20%.
Accuracy : 17%.
It takes : 2 minutes to train my model.
_________________________________________________________________
Layer (type)                 Output Shape              Param #   
=================================================================
conv2d_1 (Conv2D)            (None, 105, 104, 64)      320       
_________________________________________________________________
max_pooling2d_1 (MaxPooling2 (None, 52, 52, 64)        0         
_________________________________________________________________
conv2d_2 (Conv2D)            (None, 51, 51, 32)        8224      
_________________________________________________________________
max_pooling2d_2 (MaxPooling2 (None, 25, 25, 32)        0         
_________________________________________________________________
conv2d_3 (Conv2D)            (None, 24, 24, 16)        2064      
_________________________________________________________________
max_pooling2d_3 (MaxPooling2 (None, 12, 12, 16)        0         
_________________________________________________________________
conv2d_4 (Conv2D)            (None, 11, 11, 8)         520       
_________________________________________________________________
max_pooling2d_4 (MaxPooling2 (None, 5, 5, 8)           0         
_________________________________________________________________
flatten_1 (Flatten)          (None, 200)               0         
_________________________________________________________________
dense_1 (Dense)              (None, 128)               25728     
_________________________________________________________________
dense_2 (Dense)              (None, 64)                8256      
_________________________________________________________________
dense_3 (Dense)              (None, 8)                 520       
=================================================================
Total params: 45,632
Trainable params: 45,632
Non-trainable params: 0
_________________________________________________________________
------------------------------------------------------------------

---- Results of 2019-10-27 15:03:35.112202 ----
frequency of a song : 44100 Hz.
NFFT of a song : 256.
overlap of a song : 126.
Optimizer of the model : rmsprop .
Loss function of the model : mean_squared_error .
Totat dataset : 80 items.
Length train set : 70.
Length test set : 10.
Epochs : 20.
Batch Size : 35.
Verbose : 2.
Loss : 15%.
Accuracy : 20%.
It takes : 0 minutes to train my model.
_________________________________________________________________
Layer (type)                 Output Shape              Param #   
=================================================================
conv2d_1 (Conv2D)            (None, 105, 104, 64)      320       
_________________________________________________________________
max_pooling2d_1 (MaxPooling2 (None, 52, 52, 64)        0         
_________________________________________________________________
conv2d_2 (Conv2D)            (None, 51, 51, 32)        8224      
_________________________________________________________________
max_pooling2d_2 (MaxPooling2 (None, 25, 25, 32)        0         
_________________________________________________________________
conv2d_3 (Conv2D)            (None, 24, 24, 16)        2064      
_________________________________________________________________
max_pooling2d_3 (MaxPooling2 (None, 12, 12, 16)        0         
_________________________________________________________________
conv2d_4 (Conv2D)            (None, 11, 11, 8)         520       
_________________________________________________________________
max_pooling2d_4 (MaxPooling2 (None, 5, 5, 8)           0         
_________________________________________________________________
flatten_1 (Flatten)          (None, 200)               0         
_________________________________________________________________
dense_1 (Dense)              (None, 128)               25728     
_________________________________________________________________
dense_2 (Dense)              (None, 64)                8256      
_________________________________________________________________
dense_3 (Dense)              (None, 8)                 520       
=================================================================
Total params: 45,632
Trainable params: 45,632
Non-trainable params: 0
_________________________________________________________________
------------------------------------------------------------------

---- Results of 2019-10-27 15:12:25.215943 ----
frequency of a song : 44100 Hz.
NFFT of a song : 256.
overlap of a song : 126.
Optimizer of the model : rmsprop .
Loss function of the model : mean_squared_error .
Totat dataset : 800 items.
Length train set : 641.
Length test set : 159.
Epochs : 20.
Batch Size : 320.
Verbose : 2.
Loss : 22%.
Accuracy : 9%.
It takes : 4 minutes to train my model.
_________________________________________________________________
Layer (type)                 Output Shape              Param #   
=================================================================
conv2d_1 (Conv2D)            (None, 105, 104, 64)      320       
_________________________________________________________________
max_pooling2d_1 (MaxPooling2 (None, 52, 52, 64)        0         
_________________________________________________________________
conv2d_2 (Conv2D)            (None, 51, 51, 32)        8224      
_________________________________________________________________
max_pooling2d_2 (MaxPooling2 (None, 25, 25, 32)        0         
_________________________________________________________________
conv2d_3 (Conv2D)            (None, 24, 24, 16)        2064      
_________________________________________________________________
max_pooling2d_3 (MaxPooling2 (None, 12, 12, 16)        0         
_________________________________________________________________
conv2d_4 (Conv2D)            (None, 11, 11, 8)         520       
_________________________________________________________________
max_pooling2d_4 (MaxPooling2 (None, 5, 5, 8)           0         
_________________________________________________________________
flatten_1 (Flatten)          (None, 200)               0         
_________________________________________________________________
dense_1 (Dense)              (None, 128)               25728     
_________________________________________________________________
dense_2 (Dense)              (None, 64)                8256      
_________________________________________________________________
dense_3 (Dense)              (None, 8)                 520       
=================================================================
Total params: 45,632
Trainable params: 45,632
Non-trainable params: 0
_________________________________________________________________
------------------------------------------------------------------

---- Results of 2019-10-28 15:44:27.736466 ----
frequency of a song : 44100 Hz.
NFFT of a song : 256.
overlap of a song : 126.
Optimizer of the model : rmsprop .
Loss function of the model : mean_squared_error .
Totat dataset : 800 items.
Length train set : 651.
Length test set : 149.
Epochs : 20.
Batch Size : 325.
Verbose : 2.
Loss : 22%.
Accuracy : 10%.
It takes : 5 minutes to train my model.
_________________________________________________________________
Layer (type)                 Output Shape              Param #   
=================================================================
conv2d_1 (Conv2D)            (None, 105, 105, 64)      320       
_________________________________________________________________
max_pooling2d_1 (MaxPooling2 (None, 52, 52, 64)        0         
_________________________________________________________________
conv2d_2 (Conv2D)            (None, 51, 51, 32)        8224      
_________________________________________________________________
max_pooling2d_2 (MaxPooling2 (None, 25, 25, 32)        0         
_________________________________________________________________
conv2d_3 (Conv2D)            (None, 24, 24, 16)        2064      
_________________________________________________________________
max_pooling2d_3 (MaxPooling2 (None, 12, 12, 16)        0         
_________________________________________________________________
conv2d_4 (Conv2D)            (None, 11, 11, 8)         520       
_________________________________________________________________
max_pooling2d_4 (MaxPooling2 (None, 5, 5, 8)           0         
_________________________________________________________________
flatten_1 (Flatten)          (None, 200)               0         
_________________________________________________________________
dense_1 (Dense)              (None, 128)               25728     
_________________________________________________________________
dense_2 (Dense)              (None, 64)                8256      
_________________________________________________________________
dense_3 (Dense)              (None, 8)                 520       
=================================================================
Total params: 45,632
Trainable params: 45,632
Non-trainable params: 0
_________________________________________________________________
------------------------------------------------------------------

---- Results of 2019-10-28 16:14:04.210869 ----
frequency of a song : 44100/2 Hz.
NFFT of a song : 256.
overlap of a song : 128.
…
Original frequency of a song : 44100 Hz.
Frequency of a song : 22050.0 Hz.
Samples frequency : 44100 Hz.
NFFT of a song : None.
overlap of a song : 128.
Optimizer of the model : rmsprop .
Loss function of the model : mean_squared_error .
Totat dataset : 400 items.
Length train set : 360.
Length test set : 40.
Epochs : 20.
Batch Size : 180.
Loss : 20%.
Accuracy : 20%.
It takes : 7 minutes to train my model.
_________________________________________________________________
Layer (type)                 Output Shape              Param #   
=================================================================
conv2d_1 (Conv2D)            (None, 105, 104, 64)      320       
_________________________________________________________________
max_pooling2d_1 (MaxPooling2 (None, 52, 52, 64)        0         
_________________________________________________________________
conv2d_2 (Conv2D)            (None, 51, 51, 128)       32896     
_________________________________________________________________
max_pooling2d_2 (MaxPooling2 (None, 25, 25, 128)       0         
_________________________________________________________________
conv2d_3 (Conv2D)            (None, 24, 24, 256)       131328    
_________________________________________________________________
max_pooling2d_3 (MaxPooling2 (None, 12, 12, 256)       0         
_________________________________________________________________
conv2d_4 (Conv2D)            (None, 11, 11, 512)       524800    
_________________________________________________________________
max_pooling2d_4 (MaxPooling2 (None, 5, 5, 512)         0         
_________________________________________________________________
flatten_1 (Flatten)          (None, 12800)             0         
_________________________________________________________________
dense_1 (Dense)              (None, 1024)              13108224  
_________________________________________________________________
dropout_1 (Dropout)          (None, 1024)              0         
_________________________________________________________________
dense_2 (Dense)              (None, 8)                 8200      
=================================================================
Total params: 13,805,768
Trainable params: 13,805,768
Non-trainable params: 0
_________________________________________________________________
------------------------------------------------------------------

---- Results of 2019-11-08 17:41:19.718481 ----
Categories : ['Electronic', 'Experimental', 'Folk', 'Hip-Hop', 'Instrumental', 'International', 'Pop', 'Rock'] Hz.
…
Original frequency of a song : 44100 Hz.
Frequency of a song : 22050.0 Hz.
Samples frequency : 44100 Hz.
NFFT of a song : None.
overlap of a song : 128.
Optimizer of the model : rmsprop .
Loss function of the model : mean_squared_error .
Totat dataset : 400 items.
Length train set : 360.
Length test set : 40.
Epochs : 5.
Batch Size : 128.
Loss : 10%.
Accuracy : 7%.
It takes : 1 minutes to train my model.
_________________________________________________________________
Layer (type)                 Output Shape              Param #   
=================================================================
conv2d_1 (Conv2D)            (None, 105, 104, 64)      320       
_________________________________________________________________
max_pooling2d_1 (MaxPooling2 (None, 52, 52, 64)        0         
_________________________________________________________________
conv2d_2 (Conv2D)            (None, 51, 51, 128)       32896     
_________________________________________________________________
max_pooling2d_2 (MaxPooling2 (None, 25, 25, 128)       0         
_________________________________________________________________
conv2d_3 (Conv2D)            (None, 24, 24, 256)       131328    
_________________________________________________________________
max_pooling2d_3 (MaxPooling2 (None, 12, 12, 256)       0         
_________________________________________________________________
conv2d_4 (Conv2D)            (None, 11, 11, 512)       524800    
_________________________________________________________________
max_pooling2d_4 (MaxPooling2 (None, 5, 5, 512)         0         
_________________________________________________________________
flatten_1 (Flatten)          (None, 12800)             0         
_________________________________________________________________
dense_1 (Dense)              (None, 1024)              13108224  
_________________________________________________________________
dense_2 (Dense)              (None, 512)               524800    
_________________________________________________________________
dense_3 (Dense)              (None, 8)                 4104      
=================================================================
Total params: 14,326,472
Trainable params: 14,326,472
Non-trainable params: 0
_________________________________________________________________
------------------------------------------------------------------

---- Results of 2019-11-08 18:12:13.221038 ----
Categories : ['Electronic', 'Experimental', 'Folk', 'Hip-Hop', 'Instrumental', 'International', 'Pop', 'Rock'] Hz.
…
Original frequency of a song : 44100 Hz.
Frequency of a song : 2 Hz.
Samples frequency : 44100 Hz.
NFFT of a song : 2048.
overlap of a song : 128.
Optimizer of the model : rmsprop .
Loss function of the model : mean_squared_error .
Totat dataset : 400 items.
Length train set : 360.
Length test set : 40.
Epochs : 10.
Batch Size : 180.
Loss : 1237%.
Accuracy : 15%.
It takes : 9 minutes to train my model.
_________________________________________________________________
Layer (type)                 Output Shape              Param #   
=================================================================
conv2d_5 (Conv2D)            (None, 154, 153, 64)      320       
_________________________________________________________________
max_pooling2d_5 (MaxPooling2 (None, 77, 76, 64)        0         
_________________________________________________________________
conv2d_6 (Conv2D)            (None, 76, 75, 128)       32896     
_________________________________________________________________
max_pooling2d_6 (MaxPooling2 (None, 38, 37, 128)       0         
_________________________________________________________________
conv2d_7 (Conv2D)            (None, 37, 36, 256)       131328    
_________________________________________________________________
max_pooling2d_7 (MaxPooling2 (None, 18, 18, 256)       0         
_________________________________________________________________
conv2d_8 (Conv2D)            (None, 17, 17, 512)       524800    
_________________________________________________________________
max_pooling2d_8 (MaxPooling2 (None, 8, 8, 512)         0         
_________________________________________________________________
flatten_2 (Flatten)          (None, 32768)             0         
_________________________________________________________________
dense_4 (Dense)              (None, 1024)              33555456  
_________________________________________________________________
dense_5 (Dense)              (None, 512)               524800    
_________________________________________________________________
dense_6 (Dense)              (None, 1)                 513       
=================================================================
Total params: 34,770,113
Trainable params: 34,770,113
Non-trainable params: 0
_________________________________________________________________
------------------------------------------------------------------

---- Results of 2019-11-12 14:10:55.284340 ----
Categories : ['Electronic', 'Experimental', 'Folk', 'Hip-Hop', 'Instrumental', 'International', 'Pop', 'Rock'] Hz.
…
Frequency of a song : 0 Hz.
Samples frequency : 0 Hz.
NFFT of a song : 0.
overlap of a song : 0.
Optimizer of the model : rmsprop .
Loss function of the model : mean_squared_error .
Totat dataset : 30 items.
Length train set : 27.
Length test set : 3.
Epochs : 10.
Batch Size : 13.
Loss : 100%.
Accuracy : 0%.
Using encoder to encode outputs : TrueIt takes : 0 minutes to train my model.
_________________________________________________________________
Layer (type)                 Output Shape              Param #   
=================================================================
dense_1 (Dense)              (None, 512)               13824     
_________________________________________________________________
dense_2 (Dense)              (None, 256)               131328    
_________________________________________________________________
dense_3 (Dense)              (None, 128)               32896     
_________________________________________________________________
dense_4 (Dense)              (None, 64)                8256      
_________________________________________________________________
dense_5 (Dense)              (None, 1)                 65        
=================================================================
Total params: 186,369
Trainable params: 186,369
Non-trainable params: 0
_________________________________________________________________
------------------------------------------------------------------

---- Results of 2019-11-12 22:35:35.971585 ----
Categories : 0 Hz.
Optimizer of the model : rmsprop .
Loss function of the model : mean_squared_error .
Totat dataset : 50 items.
Length train set : 45.
Length test set : 5.
Epochs : 20.
Batch Size : 9.
Loss : 100%.
Accuracy : 0%.
Using encoder to encode outputs : TrueIt takes : 0 minutes to train my model.
_________________________________________________________________
Layer (type)                 Output Shape              Param #   
=================================================================
dense_1 (Dense)              (None, 512)               13824     
_________________________________________________________________
dense_2 (Dense)              (None, 256)               131328    
_________________________________________________________________
dense_3 (Dense)              (None, 128)               32896     
_________________________________________________________________
dense_4 (Dense)              (None, 64)                8256      
_________________________________________________________________
dense_5 (Dense)              (None, 1)                 65        
=================================================================
Total params: 186,369
Trainable params: 186,369
Non-trainable params: 0
_________________________________________________________________
------------------------------------------------------------------

---- Results of 2019-11-13 00:15:51.351886 ----
Categories : 0 Hz.
Optimizer of the model : rmsprop .
Loss function of the model : mean_squared_error .
Totat dataset : 1000 items.
Length train set : 900.
Length test set : 100.
Epochs : 20.
Batch Size : 180.
Loss : 1921%.
Accuracy : 16%.
Using encoder to encode outputs : True.
It takes : 0 minutes to train my model.
_________________________________________________________________
Layer (type)                 Output Shape              Param #   
=================================================================
dense_6 (Dense)              (None, 512)               13824     
_________________________________________________________________
dense_7 (Dense)              (None, 256)               131328    
_________________________________________________________________
dense_8 (Dense)              (None, 128)               32896     
_________________________________________________________________
dense_9 (Dense)              (None, 64)                8256      
_________________________________________________________________
dense_10 (Dense)             (None, 1)                 65        
=================================================================
Total params: 186,369
Trainable params: 186,369
Non-trainable params: 0
_________________________________________________________________
------------------------------------------------------------------

---- Results of 2019-11-13 13:54:49.148047 ----
Categories : 0 Hz.
Optimizer of the model : rmsprop .
Loss function of the model : mean_squared_error .
Totat dataset : 1000 items.
Length train set : 900.
Length test set : 100.
Epochs : 20.
Batch Size : 180.
Loss : 4%.
Accuracy : 72%.
Using encoder to encode outputs : True.
It takes : 0 minutes to train my model.
_________________________________________________________________
Layer (type)                 Output Shape              Param #   
=================================================================
dense_1 (Dense)              (None, 512)               13824     
_________________________________________________________________
dense_2 (Dense)              (None, 256)               131328    
_________________________________________________________________
dense_3 (Dense)              (None, 128)               32896     
_________________________________________________________________
dense_4 (Dense)              (None, 64)                8256      
_________________________________________________________________
dense_5 (Dense)              (None, 10)                650       
=================================================================
Total params: 186,954
Trainable params: 186,954
Non-trainable params: 0
_________________________________________________________________
------------------------------------------------------------------

---- Results of 2019-11-13 20:17:35.421036 ----
Categories : 0 Hz.
Optimizer of the model : rmsprop .
Loss function of the model : mean_squared_error .
Totat dataset : 10 items.
Length train set : 9.
Length test set : 1.
Epochs : 10.
Batch Size : 3.
Loss : 9%.
Accuracy : 0%.
Using encoder to encode outputs : False.
It takes : 0 minutes to train my model.
_________________________________________________________________
Layer (type)                 Output Shape              Param #   
=================================================================
conv2d_1 (Conv2D)            (None, 37, 37, 64)        320       
_________________________________________________________________
max_pooling2d_1 (MaxPooling2 (None, 18, 18, 64)        0         
_________________________________________________________________
conv2d_2 (Conv2D)            (None, 17, 17, 128)       32896     
_________________________________________________________________
max_pooling2d_2 (MaxPooling2 (None, 8, 8, 128)         0         
_________________________________________________________________
conv2d_3 (Conv2D)            (None, 7, 7, 256)         131328    
_________________________________________________________________
max_pooling2d_3 (MaxPooling2 (None, 3, 3, 256)         0         
_________________________________________________________________
conv2d_4 (Conv2D)            (None, 2, 2, 512)         524800    
_________________________________________________________________
max_pooling2d_4 (MaxPooling2 (None, 1, 1, 512)         0         
_________________________________________________________________
flatten_1 (Flatten)          (None, 512)               0         
_________________________________________________________________
dense_1 (Dense)              (None, 128)               65664     
_________________________________________________________________
dense_2 (Dense)              (None, 10)                1290      
=================================================================
Total params: 756,298
Trainable params: 756,298
Non-trainable params: 0
_________________________________________________________________
------------------------------------------------------------------

---- Results of 2019-11-13 20:22:04.258598 ----
Categories : 0 Hz.
Optimizer of the model : rmsprop .
Loss function of the model : mean_squared_error .
Totat dataset : 1000 items.
Length train set : 900.
Length test set : 100.
Epochs : 10.
Batch Size : 300.
Loss : 8%.
Accuracy : 14%.
Using encoder to encode outputs : False.
It takes : 0 minutes to train my model.
_________________________________________________________________
Layer (type)                 Output Shape              Param #   
=================================================================
conv2d_1 (Conv2D)            (None, 34, 34, 64)        320       
_________________________________________________________________
max_pooling2d_1 (MaxPooling2 (None, 17, 17, 64)        0         
_________________________________________________________________
conv2d_2 (Conv2D)            (None, 16, 16, 128)       32896     
_________________________________________________________________
max_pooling2d_2 (MaxPooling2 (None, 8, 8, 128)         0         
_________________________________________________________________
conv2d_3 (Conv2D)            (None, 7, 7, 256)         131328    
_________________________________________________________________
max_pooling2d_3 (MaxPooling2 (None, 3, 3, 256)         0         
_________________________________________________________________
conv2d_4 (Conv2D)            (None, 2, 2, 512)         524800    
_________________________________________________________________
max_pooling2d_4 (MaxPooling2 (None, 1, 1, 512)         0         
_________________________________________________________________
flatten_1 (Flatten)          (None, 512)               0         
_________________________________________________________________
dense_1 (Dense)              (None, 128)               65664     
_________________________________________________________________
dense_2 (Dense)              (None, 10)                1290      
=================================================================
Total params: 756,298
Trainable params: 756,298
Non-trainable params: 0
_________________________________________________________________
------------------------------------------------------------------

---- Results of 2019-11-13 20:24:58.864374 ----
Categories : 0 Hz.
Optimizer of the model : rmsprop .
Loss function of the model : mean_squared_error .
Totat dataset : 1000 items.
Length train set : 900.
Length test set : 100.
Epochs : 25.
Batch Size : 150.
Loss : 17%.
Accuracy : 11%.
Using encoder to encode outputs : False.
It takes : 2 minutes to train my model.
_________________________________________________________________
Layer (type)                 Output Shape              Param #   
=================================================================
conv2d_1 (Conv2D)            (None, 34, 34, 64)        320       
_________________________________________________________________
max_pooling2d_1 (MaxPooling2 (None, 17, 17, 64)        0         
_________________________________________________________________
conv2d_2 (Conv2D)            (None, 16, 16, 128)       32896     
_________________________________________________________________
max_pooling2d_2 (MaxPooling2 (None, 8, 8, 128)         0         
_________________________________________________________________
conv2d_3 (Conv2D)            (None, 7, 7, 256)         131328    
_________________________________________________________________
max_pooling2d_3 (MaxPooling2 (None, 3, 3, 256)         0         
_________________________________________________________________
conv2d_4 (Conv2D)            (None, 2, 2, 512)         524800    
_________________________________________________________________
max_pooling2d_4 (MaxPooling2 (None, 1, 1, 512)         0         
_________________________________________________________________
flatten_1 (Flatten)          (None, 512)               0         
_________________________________________________________________
dense_1 (Dense)              (None, 128)               65664     
_________________________________________________________________
dense_2 (Dense)              (None, 10)                1290      
=================================================================
Total params: 756,298
Trainable params: 756,298
Non-trainable params: 0
_________________________________________________________________
------------------------------------------------------------------

---- Results of 2019-11-13 20:27:20.540347 ----
Categories : 0 Hz.
Optimizer of the model : rmsprop .
Loss function of the model : mean_squared_error .
Totat dataset : 1000 items.
Length train set : 900.
Length test set : 100.
Epochs : 25.
Batch Size : 150.
Loss : 7%.
Accuracy : 34%.
Using encoder to encode outputs : False.
It takes : 1 minutes to train my model.
_________________________________________________________________
Layer (type)                 Output Shape              Param #   
=================================================================
conv2d_1 (Conv2D)            (None, 33, 33, 32)        320       
_________________________________________________________________
conv2d_2 (Conv2D)            (None, 31, 31, 32)        9248      
_________________________________________________________________
max_pooling2d_1 (MaxPooling2 (None, 15, 15, 32)        0         
_________________________________________________________________
dropout_1 (Dropout)          (None, 15, 15, 32)        0         
_________________________________________________________________
conv2d_3 (Conv2D)            (None, 13, 13, 32)        9248      
_________________________________________________________________
max_pooling2d_2 (MaxPooling2 (None, 6, 6, 32)          0         
_________________________________________________________________
dropout_2 (Dropout)          (None, 6, 6, 32)          0         
_________________________________________________________________
flatten_1 (Flatten)          (None, 1152)              0         
_________________________________________________________________
dense_1 (Dense)              (None, 32)                36896     
_________________________________________________________________
dropout_3 (Dropout)          (None, 32)                0         
_________________________________________________________________
dense_2 (Dense)              (None, 21)                693       
_________________________________________________________________
dense_3 (Dense)              (None, 10)                220       
=================================================================
Total params: 56,625
Trainable params: 56,625
Non-trainable params: 0
_________________________________________________________________
------------------------------------------------------------------

---- Results of 2019-11-13 20:32:06.788504 ----
Categories : 0 Hz.
Optimizer of the model : rmsprop .
Loss function of the model : mean_squared_error .
Totat dataset : 1000 items.
Length train set : 900.
Length test set : 100.
Epochs : 50.
Batch Size : 90.
Loss : 7%.
Accuracy : 45%.
Using encoder to encode outputs : False.
It takes : 2 minutes to train my model.
_________________________________________________________________
Layer (type)                 Output Shape              Param #   
=================================================================
conv2d_1 (Conv2D)            (None, 33, 33, 32)        320       
_________________________________________________________________
conv2d_2 (Conv2D)            (None, 31, 31, 32)        9248      
_________________________________________________________________
max_pooling2d_1 (MaxPooling2 (None, 15, 15, 32)        0         
_________________________________________________________________
dropout_1 (Dropout)          (None, 15, 15, 32)        0         
_________________________________________________________________
conv2d_3 (Conv2D)            (None, 13, 13, 32)        9248      
_________________________________________________________________
max_pooling2d_2 (MaxPooling2 (None, 6, 6, 32)          0         
_________________________________________________________________
dropout_2 (Dropout)          (None, 6, 6, 32)          0         
_________________________________________________________________
flatten_1 (Flatten)          (None, 1152)              0         
_________________________________________________________________
dense_1 (Dense)              (None, 32)                36896     
_________________________________________________________________
dropout_3 (Dropout)          (None, 32)                0         
_________________________________________________________________
dense_2 (Dense)              (None, 21)                693       
_________________________________________________________________
dense_3 (Dense)              (None, 10)                220       
=================================================================
Total params: 56,625
Trainable params: 56,625
Non-trainable params: 0
_________________________________________________________________
------------------------------------------------------------------

---- Results of 2019-11-13 20:38:36.452945 ----
Categories : 0 Hz.
Optimizer of the model : rmsprop .
Loss function of the model : mean_squared_error .
Totat dataset : 1000 items.
Length train set : 900.
Length test set : 100.
Epochs : 50.
Batch Size : 90.
Loss : 7%.
Accuracy : 33%.
Using encoder to encode outputs : False.
It takes : 2 minutes to train my model.
_________________________________________________________________
Layer (type)                 Output Shape              Param #   
=================================================================
conv2d_1 (Conv2D)            (None, 33, 33, 32)        1184      
_________________________________________________________________
conv2d_2 (Conv2D)            (None, 31, 31, 32)        9248      
_________________________________________________________________
max_pooling2d_1 (MaxPooling2 (None, 15, 15, 32)        0         
_________________________________________________________________
dropout_1 (Dropout)          (None, 15, 15, 32)        0         
_________________________________________________________________
conv2d_3 (Conv2D)            (None, 13, 13, 32)        9248      
_________________________________________________________________
max_pooling2d_2 (MaxPooling2 (None, 6, 6, 32)          0         
_________________________________________________________________
dropout_2 (Dropout)          (None, 6, 6, 32)          0         
_________________________________________________________________
flatten_1 (Flatten)          (None, 1152)              0         
_________________________________________________________________
dense_1 (Dense)              (None, 32)                36896     
_________________________________________________________________
dropout_3 (Dropout)          (None, 32)                0         
_________________________________________________________________
dense_2 (Dense)              (None, 21)                693       
_________________________________________________________________
dense_3 (Dense)              (None, 10)                220       
=================================================================
Total params: 57,489
Trainable params: 57,489
Non-trainable params: 0
_________________________________________________________________
------------------------------------------------------------------

---- Results of 2019-11-13 20:43:12.405463 ----
Categories : 0 Hz.
Optimizer of the model : rmsprop .
Loss function of the model : mean_squared_error .
Totat dataset : 1000 items.
Length train set : 900.
Length test set : 100.
Epochs : 50.
Batch Size : 90.
Loss : 7%.
Accuracy : 32%.
Using encoder to encode outputs : False.
It takes : 2 minutes to train my model.
_________________________________________________________________
Layer (type)                 Output Shape              Param #   
=================================================================
conv2d_1 (Conv2D)            (None, 33, 33, 32)        896       
_________________________________________________________________
conv2d_2 (Conv2D)            (None, 31, 31, 32)        9248      
_________________________________________________________________
max_pooling2d_1 (MaxPooling2 (None, 15, 15, 32)        0         
_________________________________________________________________
dropout_1 (Dropout)          (None, 15, 15, 32)        0         
_________________________________________________________________
conv2d_3 (Conv2D)            (None, 13, 13, 32)        9248      
_________________________________________________________________
max_pooling2d_2 (MaxPooling2 (None, 6, 6, 32)          0         
_________________________________________________________________
dropout_2 (Dropout)          (None, 6, 6, 32)          0         
_________________________________________________________________
flatten_1 (Flatten)          (None, 1152)              0         
_________________________________________________________________
dense_1 (Dense)              (None, 32)                36896     
_________________________________________________________________
dropout_3 (Dropout)          (None, 32)                0         
_________________________________________________________________
dense_2 (Dense)              (None, 21)                693       
_________________________________________________________________
dense_3 (Dense)              (None, 10)                220       
=================================================================
Total params: 57,201
Trainable params: 57,201
Non-trainable params: 0
_________________________________________________________________
------------------------------------------------------------------

---- Results of 2019-11-13 20:52:10.068442 ----
Categories : 0 Hz.
Optimizer of the model : rmsprop .
Loss function of the model : mean_squared_error .
Totat dataset : 1000 items.
Length train set : 900.
Length test set : 100.
Epochs : 100.
Batch Size : 90.
Loss : 7%.
Accuracy : 40%.
Using encoder to encode outputs : False.
It takes : 5 minutes to train my model.
_________________________________________________________________
Layer (type)                 Output Shape              Param #   
=================================================================
conv2d_1 (Conv2D)            (None, 33, 33, 32)        320       
_________________________________________________________________
conv2d_2 (Conv2D)            (None, 31, 31, 32)        9248      
_________________________________________________________________
max_pooling2d_1 (MaxPooling2 (None, 15, 15, 32)        0         
_________________________________________________________________
dropout_1 (Dropout)          (None, 15, 15, 32)        0         
_________________________________________________________________
conv2d_3 (Conv2D)            (None, 13, 13, 32)        9248      
_________________________________________________________________
max_pooling2d_2 (MaxPooling2 (None, 6, 6, 32)          0         
_________________________________________________________________
dropout_2 (Dropout)          (None, 6, 6, 32)          0         
_________________________________________________________________
flatten_1 (Flatten)          (None, 1152)              0         
_________________________________________________________________
dense_1 (Dense)              (None, 32)                36896     
_________________________________________________________________
dropout_3 (Dropout)          (None, 32)                0         
_________________________________________________________________
dense_2 (Dense)              (None, 32)                1056      
_________________________________________________________________
dense_3 (Dense)              (None, 10)                330       
=================================================================
Total params: 57,098
Trainable params: 57,098
Non-trainable params: 0
_________________________________________________________________
------------------------------------------------------------------

---- Results of 2019-11-13 21:24:48.194541 ----
Categories : 0 Hz.
Optimizer of the model : rmsprop .
Loss function of the model : mean_squared_error .
Totat dataset : 1000 items.
Length train set : 900.
Length test set : 100.
Epochs : 100.
Batch Size : 90.
Loss : 5%.
Accuracy : 60%.
Using encoder to encode outputs : False.
It takes : 11 minutes to train my model.
_________________________________________________________________
Layer (type)                 Output Shape              Param #   
=================================================================
conv2d_1 (Conv2D)            (None, 44, 44, 32)        320       
_________________________________________________________________
conv2d_2 (Conv2D)            (None, 42, 42, 32)        9248      
_________________________________________________________________
max_pooling2d_1 (MaxPooling2 (None, 21, 21, 32)        0         
_________________________________________________________________
dropout_1 (Dropout)          (None, 21, 21, 32)        0         
_________________________________________________________________
conv2d_3 (Conv2D)            (None, 19, 19, 32)        9248      
_________________________________________________________________
max_pooling2d_2 (MaxPooling2 (None, 9, 9, 32)          0         
_________________________________________________________________
dropout_2 (Dropout)          (None, 9, 9, 32)          0         
_________________________________________________________________
flatten_1 (Flatten)          (None, 2592)              0         
_________________________________________________________________
dense_1 (Dense)              (None, 32)                82976     
_________________________________________________________________
dropout_3 (Dropout)          (None, 32)                0         
_________________________________________________________________
dense_2 (Dense)              (None, 32)                1056      
_________________________________________________________________
dense_3 (Dense)              (None, 10)                330       
=================================================================
Total params: 103,178
Trainable params: 103,178
Non-trainable params: 0
_________________________________________________________________
------------------------------------------------------------------

---- Results of 2019-11-13 22:26:56.367099 ----
Categories : 0 Hz.
Optimizer of the model : rmsprop .
Loss function of the model : mean_squared_error .
Totat dataset : 1000 items.
Length train set : 900.
Length test set : 100.
Epochs : 40.
Batch Size : 150.
Loss : 4%.
Accuracy : 67%.
Using encoder to encode outputs : True.
It takes : 0 minutes to train my model.
_________________________________________________________________
Layer (type)                 Output Shape              Param #   
=================================================================
dense_4 (Dense)              (None, 512)               13824     
_________________________________________________________________
dense_5 (Dense)              (None, 256)               131328    
_________________________________________________________________
dense_6 (Dense)              (None, 128)               32896     
_________________________________________________________________
dense_7 (Dense)              (None, 64)                8256      
_________________________________________________________________
dense_8 (Dense)              (None, 10)                650       
=================================================================
Total params: 186,954
Trainable params: 186,954
Non-trainable params: 0
_________________________________________________________________
------------------------------------------------------------------

---- Results of 2019-11-13 22:28:24.634254 ----
Categories : 10 categories.
Optimizer of the model : rmsprop .
Loss function of the model : mean_squared_error .
Totat dataset : 1000 items.
Length train set : 900.
Length test set : 100.
Epochs : 400.
Batch Size : 150.
Loss : 5%.
Accuracy : 70%.
Using encoder to encode outputs : True.
It takes : 0 minutes to train my model.
_________________________________________________________________
Layer (type)                 Output Shape              Param #   
=================================================================
dense_4 (Dense)              (None, 512)               13824     
_________________________________________________________________
dense_5 (Dense)              (None, 256)               131328    
_________________________________________________________________
dense_6 (Dense)              (None, 128)               32896     
_________________________________________________________________
dense_7 (Dense)              (None, 64)                8256      
_________________________________________________________________
dense_8 (Dense)              (None, 10)                650       
=================================================================
Total params: 186,954
Trainable params: 186,954
Non-trainable params: 0
_________________________________________________________________
------------------------------------------------------------------

